…
      "Using TensorFlow backend.\n"
     ]
    },
    {
     "name": "stdout",
     "output_type": "stream",
     "text": [
      "WARNING:tensorflow:From //anaconda3/lib/python3.7/site-packages/keras/backend/tensorflow_backend.py:4070: The name tf.nn.max_pool is deprecated. Please use tf.nn.max_pool2d instead.\n",
      "\n",
      "Model: \"model_1\"\n",
      "_________________________________________________________________\n",
      "Layer (type)                 Output Shape              Param #   \n",
      "=================================================================\n",
      "input_1 (InputLayer)         (None, 132, 256, 1)       0         \n",
      "_________________________________________________________________\n",
      "conv2d_1 (Conv2D)            (None, 132, 256, 8)       80        \n",
      "_________________________________________________________________\n",
      "conv2d_2 (Conv2D)            (None, 132, 256, 8)       584       \n",
      "_________________________________________________________________\n",
      "batch_normalization_1 (Batch (None, 132, 256, 8)       32        \n",
      "_________________________________________________________________\n",
      "max_pooling2d_1 (MaxPooling2 (None, 66, 128, 8)        0         \n",
      "_________________________________________________________________\n",
      "conv2d_3 (Conv2D)            (None, 66, 128, 16)       1168      \n",
      "_________________________________________________________________\n",
      "conv2d_4 (Conv2D)            (None, 66, 128, 16)       2320      \n",
      "_________________________________________________________________\n",
      "batch_normalization_2 (Batch (None, 66, 128, 16)       64        \n",
      "_________________________________________________________________\n",
      "max_pooling2d_2 (MaxPooling2 (None, 33, 64, 16)        0         \n",
      "_________________________________________________________________\n",
      "conv2d_5 (Conv2D)            (None, 33, 64, 32)        4640      \n",
      "_________________________________________________________________\n",
      "conv2d_6 (Conv2D)            (None, 33, 64, 32)        9248      \n",
      "_________________________________________________________________\n",
      "batch_normalization_3 (Batch (None, 33, 64, 32)        128       \n",
      "_________________________________________________________________\n",
      "max_pooling2d_3 (MaxPooling2 (None, 16, 32, 32)        0         \n",
      "_________________________________________________________________\n",
      "conv2d_7 (Conv2D)            (None, 16, 32, 64)        18496     \n",
      "_________________________________________________________________\n",
      "conv2d_8 (Conv2D)            (None, 16, 32, 64)        36928     \n",
      "_________________________________________________________________\n",
      "batch_normalization_4 (Batch (None, 16, 32, 64)        256       \n",
      "_________________________________________________________________\n",
      "max_pooling2d_4 (MaxPooling2 (None, 8, 16, 64)         0         \n",
      "_________________________________________________________________\n",
      "conv2d_9 (Conv2D)            (None, 8, 16, 128)        73856     \n",
      "_________________________________________________________________\n",
      "conv2d_10 (Conv2D)           (None, 8, 16, 128)        147584    \n",
      "_________________________________________________________________\n",
      "batch_normalization_5 (Batch (None, 8, 16, 128)        512       \n",
      "_________________________________________________________________\n",
      "global_average_pooling2d_1 ( (None, 128)               0         \n",
      "_________________________________________________________________\n",
      "dense_1 (Dense)              (None, 128)               16512     \n",
      "_________________________________________________________________\n",
      "dropout_1 (Dropout)          (None, 128)               0         \n",
      "_________________________________________________________________\n",
      "dense_2 (Dense)              (None, 1)                 129       \n",
      "=================================================================\n",
      "Total params: 312,537\n",
      "Trainable params: 312,041\n",
      "Non-trainable params: 496\n",
      "_________________________________________________________________\n",
      "None\n"
     ]
    }
   ],
   "source": [
    "#Create the U-net architecture\n",
    "from keras.layers import Input, Conv2D, MaxPool2D, Dense, Dropout, BatchNormalization \n",
…
